asl_model_clean.onnx (onnx, 2431 bytes, 2 tensors)

network.8.bias f4 [64]
00000000: 0cbe b83e f8fa 293e 53b5 22be a78a ab3e
00000010: e13b 5a3f 567d 8d3c 99de aabc 4f8f 8b3e
00000020: 3d22 a53e 8b30 d8be 01df ae3d 82cb 813e
00000030: 0d09 053e 5859 293e 5d3a 213e 00ea 4cb9
00000040: 7a8e 6cbe 6d69 af3e e8e4 23be 822d e4bc
00000050: 3427 35bb 70c6 87be 2da1 5ebe 179f 353e
00000060: 1abe 373e 82c2 c63e 1e8b edbe ac52 cebd
00000070: 581f d83e 6532 9e3e 2c73 653e 0041 013f
00000080: 3d28 9c3e c8bd 633f c282 3bbe c46c 9f3e
00000090: aa87 093f 97a8 10bf 60d6 d5be a1b6 57be
000000a0: 7b8f c23e 69e6 9ebf 1614 63be 2bd0 403f
000000b0: 4465 03be b6b3 23be 0605 4fbe c777 cebe
000000c0: 8b7e 7e3d c96a 59bf e225 113f 7c49 adbe
000000d0: 8db8 07be 804a c6be b5b1 69be 9ba1 22be
000000e0: ed67 133f 2f1d 3dbd bc40 8d3c 0f8f b2bc
000000f0: 5402 ba3e bae9 3dbf fc58 613e 8b69 2c3f
0.36082494 0.16599643 -0.15889482 0.3350422 0.8524762 0.017271679 -0.020858096 0.27257773
0.32252684 -0.42224535 0.08538628 0.25350577 0.12991734 0.16537988 0.1574492 -0.00019542128
-0.23101225 0.3426012 -0.1600529 -0.027853731 -0.0027641775 -0.26518583 -0.21741171 0.17736469
0.17943612 0.38820273 -0.463952 -0.10074362 0.42211413 0.30897823 0.22407216 0.5048981
0.3049945 0.8896146 -0.18311599 0.3113767 0.5372263 -0.5650725 -0.41765118 -0.21065761
0.38000092 -1.2414066 -0.22175631 0.7531764 -0.12831599 -0.15986523 -0.2021676 -0.40325758
0.0621324 -0.84928566 0.5669843 -0.33845127 -0.13253994 -0.38728714 -0.22821696 -0.1588196
0.57580453 -0.04617041 0.017242782 -0.021796731 0.363299 -0.74184763 0.22006601 0.67348546

network.12.bias f4 [4]
00000000: 495b b33c 03e8 1abd 7cf5 a1bc ea21 173d
0.021894114 -0.03781892 -0.019770376 0.036897577
